Training Model
===============================
==========================================================================================
Layer (type:depth-idx)                   Output Shape              Param #
==========================================================================================
Extreme                                  [100, 40, 2]              --
├─Sequential: 1-1                        [100, 80]                 --
│    └─Linear: 2-1                       [100, 8000]               648,000
│    └─ReLU: 2-2                         [100, 8000]               --
│    └─Linear: 2-3                       [100, 80]                 640,080
==========================================================================================
Total params: 1,288,080
Trainable params: 1,288,080
Non-trainable params: 0
Total mult-adds (Units.MEGABYTES): 128.81
==========================================================================================
Input size (MB): 0.03
Forward/backward pass size (MB): 6.46
Params size (MB): 5.15
Estimated Total Size (MB): 11.65
…
loss: 213.100357  [ 5694/ 7851]
loss: 732.534790  [ 6162/ 7851]
loss: 826.668579  [ 6630/ 7851]
loss: 350.221558  [ 7098/ 7851]
loss: 146.838501  [ 7566/ 7851]

Test Error: 
 Accuracy: 0.3%, Avg loss: 206.937268 
Done!
Model weights saved to model_weights/Extreme.pth
Training Model
===============================
==========================================================================================
Layer (type:depth-idx)                   Output Shape              Param #
==========================================================================================
Extreme                                  [100, 40, 2]              --
├─Sequential: 1-1                        [100, 80]                 --
│    └─Linear: 2-1                       [100, 8000]               648,000
│    └─ReLU: 2-2                         [100, 8000]               --
│    └─Linear: 2-3                       [100, 400]                3,200,400
│    └─ReLU: 2-4                         [100, 400]                --
│    └─Linear: 2-5                       [100, 80]                 32,080
==========================================================================================
Total params: 3,880,480
Trainable params: 3,880,480
Non-trainable params: 0
Total mult-adds (Units.MEGABYTES): 388.05
==========================================================================================
Input size (MB): 0.03
Forward/backward pass size (MB): 6.78
Params size (MB): 15.52
Estimated Total Size (MB): 22.34
…
loss: 4.410024  [ 5694/ 7851]
loss: 5.841655  [ 6162/ 7851]
loss: 8.829099  [ 6630/ 7851]
loss: 5.903508  [ 7098/ 7851]
loss: 9.003321  [ 7566/ 7851]

Test Error: 
 Accuracy: 1.2%, Avg loss: 6.781025 
Done!
Model weights saved to model_weights/Extreme.pth
Training Model
===============================
==========================================================================================
Layer (type:depth-idx)                   Output Shape              Param #
==========================================================================================
Extreme                                  [100, 40, 2]              --
├─Sequential: 1-1                        [100, 80]                 --
│    └─Linear: 2-1                       [100, 400]                32,400
│    └─ReLU: 2-2                         [100, 400]                --
│    └─Linear: 2-3                       [100, 8000]               3,208,000
│    └─ReLU: 2-4                         [100, 8000]               --
│    └─Linear: 2-5                       [100, 400]                3,200,400
│    └─ReLU: 2-6                         [100, 400]                --
│    └─Linear: 2-7                       [100, 80]                 32,080
==========================================================================================
Total params: 6,472,880
Trainable params: 6,472,880
Non-trainable params: 0
Total mult-adds (Units.MEGABYTES): 647.29
==========================================================================================
Input size (MB): 0.03
Forward/backward pass size (MB): 7.10
Params size (MB): 25.89
Estimated Total Size (MB): 33.03
…
loss: 8.629891  [ 5694/ 7851]
loss: 4.194052  [ 6162/ 7851]
loss: 4.281513  [ 6630/ 7851]
loss: 7.400486  [ 7098/ 7851]
loss: 7.466026  [ 7566/ 7851]

Test Error: 
 Accuracy: 2.1%, Avg loss: 6.943152 
Done!
Model weights saved to model_weights/Extreme.pth
Training Model
===============================
==========================================================================================
Layer (type:depth-idx)                   Output Shape              Param #
==========================================================================================
Extreme                                  [100, 40, 2]              --
├─Sequential: 1-1                        [100, 80]                 --
│    └─Linear: 2-1                       [100, 400]                32,400
│    └─ReLU: 2-2                         [100, 400]                --
│    └─Linear: 2-3                       [100, 80]                 32,080
==========================================================================================
Total params: 64,480
Trainable params: 64,480
Non-trainable params: 0
Total mult-adds (Units.MEGABYTES): 6.45
==========================================================================================
Input size (MB): 0.03
Forward/backward pass size (MB): 0.38
Params size (MB): 0.26
Estimated Total Size (MB): 0.67
…
loss: 6.414642  [ 5226/ 7851]
loss: 8.853467  [ 5694/ 7851]
loss: 7.462567  [ 6162/ 7851]
loss: 5.720655  [ 6630/ 7851]
loss: 4.831117  [ 7098/ 7851]
loss: 6.273205  [ 7566/ 7851]

Test Error: 
 Accuracy: 1.7%, Avg loss: 6.527454 
Epoch 19
-------------------------------
Training Model
===============================
==========================================================================================
Layer (type:depth-idx)                   Output Shape              Param #
==========================================================================================
Extreme                                  [100, 40, 2]              --
├─Sequential: 1-1                        [100, 80]                 --
│    └─Conv2d: 2-1                       [100, 80, 1, 1]           6,480
│    └─ReLU: 2-2                         [100, 80, 1, 1]           --
│    └─Flatten: 2-3                      [100, 80]                 --
==========================================================================================
Total params: 6,480
Trainable params: 6,480
Non-trainable params: 0
Total mult-adds (Units.MEGABYTES): 0.65
==========================================================================================
Input size (MB): 0.03
Forward/backward pass size (MB): 0.06
Params size (MB): 0.03
Estimated Total Size (MB): 0.12
…
loss: 6.837391  [ 5694/ 7851]
loss: 6.647967  [ 6162/ 7851]
loss: 6.266617  [ 6630/ 7851]
loss: 7.069164  [ 7098/ 7851]
loss: 7.355098  [ 7566/ 7851]

Test Error: 
 Accuracy: 2.6%, Avg loss: 7.306850 
Done!
Model weights saved to model_weights/Extreme.pth
Training Model
===============================
==========================================================================================
Layer (type:depth-idx)                   Output Shape              Param #
==========================================================================================
Extreme                                  [100, 40, 2]              --
├─Sequential: 1-1                        [100, 80]                 --
│    └─Conv2d: 2-1                       [100, 80, 41, 3]          400
│    └─ReLU: 2-2                         [100, 80, 41, 3]          --
│    └─Conv2d: 2-3                       [100, 400, 40, 2]         128,400
│    └─Flatten: 2-4                      [100, 32000]              --
│    └─ReLU: 2-5                         [100, 32000]              --
│    └─Linear: 2-6                       [100, 80]                 2,560,080
==========================================================================================
Total params: 2,688,880
Trainable params: 2,688,880
Non-trainable params: 0
Total mult-adds (Units.GIGABYTES): 1.29
==========================================================================================
Input size (MB): 0.03
Forward/backward pass size (MB): 33.54
Params size (MB): 10.76
Estimated Total Size (MB): 44.32
==========================================================================================
Epoch 1
-------------------------------
Training Model
===============================
==========================================================================================
Layer (type:depth-idx)                   Output Shape              Param #
==========================================================================================
Extreme                                  [100, 40, 2]              --
├─Sequential: 1-1                        [100, 80]                 --
│    └─Conv2d: 2-1                       [100, 80, 41, 3]          400
│    └─ReLU: 2-2                         [100, 80, 41, 3]          --
│    └─Conv2d: 2-3                       [100, 400, 40, 2]         128,400
│    └─Flatten: 2-4                      [100, 32000]              --
│    └─ReLU: 2-5                         [100, 32000]              --
│    └─Linear: 2-6                       [100, 80]                 2,560,080
==========================================================================================
Total params: 2,688,880
Trainable params: 2,688,880
Non-trainable params: 0
Total mult-adds (Units.GIGABYTES): 1.29
==========================================================================================
Input size (MB): 0.03
Forward/backward pass size (MB): 33.54
Params size (MB): 10.76
Estimated Total Size (MB): 44.32
==========================================================================================
Epoch 1
-------------------------------
Training Model
===============================
==========================================================================================
Layer (type:depth-idx)                   Output Shape              Param #
==========================================================================================
Extreme                                  [100, 40, 2]              --
├─Sequential: 1-1                        [100, 80]                 --
│    └─Conv2d: 2-1                       [100, 80, 41, 3]          400
│    └─ReLU: 2-2                         [100, 80, 41, 3]          --
│    └─Conv2d: 2-3                       [100, 400, 40, 2]         128,400
│    └─Flatten: 2-4                      [100, 32000]              --
│    └─ReLU: 2-5                         [100, 32000]              --
│    └─Linear: 2-6                       [100, 80]                 2,560,080
==========================================================================================
Total params: 2,688,880
Trainable params: 2,688,880
Non-trainable params: 0
Total mult-adds (Units.GIGABYTES): 1.29
==========================================================================================
Input size (MB): 0.03
Forward/backward pass size (MB): 33.54
Params size (MB): 10.76
Estimated Total Size (MB): 44.32
==========================================================================================
Epoch 1
-------------------------------
Training Model
===============================
==========================================================================================
Layer (type:depth-idx)                   Output Shape              Param #
==========================================================================================
Extreme                                  [100, 40, 2]              --
├─Sequential: 1-1                        [100, 80]                 --
│    └─Conv2d: 2-1                       [100, 80, 41, 3]          400
│    └─ReLU: 2-2                         [100, 80, 41, 3]          --
│    └─Conv2d: 2-3                       [100, 400, 40, 2]         128,400
│    └─Flatten: 2-4                      [100, 32000]              --
│    └─ReLU: 2-5                         [100, 32000]              --
│    └─Linear: 2-6                       [100, 80]                 2,560,080
==========================================================================================
Total params: 2,688,880
Trainable params: 2,688,880
Non-trainable params: 0
Total mult-adds (Units.GIGABYTES): 1.29
==========================================================================================
Input size (MB): 0.03
Forward/backward pass size (MB): 33.54
Params size (MB): 10.76
Estimated Total Size (MB): 44.32
==========================================================================================
Epoch 1
-------------------------------
Training Model
===============================
==========================================================================================
Layer (type:depth-idx)                   Output Shape              Param #
==========================================================================================
Extreme                                  [100, 40, 2]              --
├─Sequential: 1-1                        [100, 80]                 --
│    └─Conv2d: 2-1                       [100, 80, 41, 3]          400
│    └─ReLU: 2-2                         [100, 80, 41, 3]          --
│    └─Conv2d: 2-3                       [100, 400, 40, 2]         128,400
│    └─Flatten: 2-4                      [100, 32000]              --
│    └─ReLU: 2-5                         [100, 32000]              --
│    └─Linear: 2-6                       [100, 80]                 2,560,080
==========================================================================================
Total params: 2,688,880
Trainable params: 2,688,880
Non-trainable params: 0
Total mult-adds (Units.GIGABYTES): 1.29
==========================================================================================
Input size (MB): 0.03
Forward/backward pass size (MB): 33.54
Params size (MB): 10.76
Estimated Total Size (MB): 44.32
==========================================================================================
Epoch 1
-------------------------------
Training Model
===============================
==========================================================================================
Layer (type:depth-idx)                   Output Shape              Param #
==========================================================================================
Extreme                                  [100, 40, 2]              --
├─Sequential: 1-1                        [100, 80]                 --
│    └─Conv2d: 2-1                       [100, 80, 41, 3]          400
│    └─ReLU: 2-2                         [100, 80, 41, 3]          --
│    └─Conv2d: 2-3                       [100, 400, 40, 2]         128,400
│    └─Flatten: 2-4                      [100, 32000]              --
│    └─ReLU: 2-5                         [100, 32000]              --
│    └─Linear: 2-6                       [100, 80]                 2,560,080
==========================================================================================
Total params: 2,688,880
Trainable params: 2,688,880
Non-trainable params: 0
Total mult-adds (Units.GIGABYTES): 1.29
==========================================================================================
Input size (MB): 0.03
Forward/backward pass size (MB): 33.54
Params size (MB): 10.76
Estimated Total Size (MB): 44.32
==========================================================================================
Epoch 1
-------------------------------
Training Model
===============================
==========================================================================================
Layer (type:depth-idx)                   Output Shape              Param #
==========================================================================================
Extreme                                  [100, 40, 2]              --
├─Sequential: 1-1                        [100, 80]                 --
│    └─Conv2d: 2-1                       [100, 80, 41, 3]          400
│    └─ReLU: 2-2                         [100, 80, 41, 3]          --
│    └─Conv2d: 2-3                       [100, 400, 40, 2]         128,400
│    └─Flatten: 2-4                      [100, 32000]              --
│    └─ReLU: 2-5                         [100, 32000]              --
│    └─Linear: 2-6                       [100, 80]                 2,560,080
==========================================================================================
Total params: 2,688,880
Trainable params: 2,688,880
Non-trainable params: 0
Total mult-adds (Units.GIGABYTES): 1.29
==========================================================================================
Input size (MB): 0.03
Forward/backward pass size (MB): 33.54
Params size (MB): 10.76
Estimated Total Size (MB): 44.32
==========================================================================================
Epoch 1
-------------------------------
Training Model
===============================
==========================================================================================
Layer (type:depth-idx)                   Output Shape              Param #
==========================================================================================
Extreme                                  [100, 40, 2]              --
├─Sequential: 1-1                        [100, 80]                 --
│    └─Conv2d: 2-1                       [100, 80, 41, 3]          400
│    └─ReLU: 2-2                         [100, 80, 41, 3]          --
│    └─Conv2d: 2-3                       [100, 400, 40, 2]         128,400
│    └─Flatten: 2-4                      [100, 32000]              --
│    └─ReLU: 2-5                         [100, 32000]              --
│    └─Linear: 2-6                       [100, 80]                 2,560,080
==========================================================================================
Total params: 2,688,880
Trainable params: 2,688,880
Non-trainable params: 0
Total mult-adds (Units.GIGABYTES): 1.29
==========================================================================================
Input size (MB): 0.03
Forward/backward pass size (MB): 33.54
Params size (MB): 10.76
Estimated Total Size (MB): 44.32
==========================================================================================
Epoch 1
-------------------------------
Training Model
===============================
==========================================================================================
Layer (type:depth-idx)                   Output Shape              Param #
==========================================================================================
Extreme                                  [100, 40, 2]              --
├─Sequential: 1-1                        [100, 80]                 --
│    └─Conv2d: 2-1                       [100, 80, 41, 3]          400
│    └─ReLU: 2-2                         [100, 80, 41, 3]          --
│    └─Conv2d: 2-3                       [100, 400, 40, 2]         128,400
│    └─Flatten: 2-4                      [100, 32000]              --
│    └─ReLU: 2-5                         [100, 32000]              --
│    └─Linear: 2-6                       [100, 80]                 2,560,080
==========================================================================================
Total params: 2,688,880
Trainable params: 2,688,880
Non-trainable params: 0
Total mult-adds (Units.GIGABYTES): 1.29
==========================================================================================
Input size (MB): 0.03
Forward/backward pass size (MB): 33.54
Params size (MB): 10.76
Estimated Total Size (MB): 44.32
…
