Training Model
===============================
==========================================================================================
Layer (type:depth-idx)                   Output Shape              Param #
==========================================================================================
Extreme                                  [10, 40, 2]               --
├─Sequential: 1-1                        [10, 80]                  --
│    └─Flatten: 2-1                      [10, 80]                  --
│    └─Linear: 2-2                       [10, 160]                 12,960
│    └─ReLU: 2-3                         [10, 160]                 --
│    └─Linear: 2-4                       [10, 80]                  12,880
==========================================================================================
Total params: 25,840
Trainable params: 25,840
Non-trainable params: 0
Total mult-adds (Units.MEGABYTES): 0.26
==========================================================================================
Input size (MB): 0.00
Forward/backward pass size (MB): 0.02
Params size (MB): 0.10
Estimated Total Size (MB): 0.13
…
Test Error: 
 Accuracy: 5.0%, Avg loss: 0.250700 
Epoch 100
-------------------------------
loss: 0.437335  [    7/   63]
loss: 0.913563  [   42/   63]

Test Error: 
 Accuracy: 9.8%, Avg loss: 0.217128 
Done!
Model weights saved to model_weights/Extreme4.pth
Training Model
===============================
==========================================================================================
Layer (type:depth-idx)                   Output Shape              Param #
==========================================================================================
Extreme                                  [10, 40, 2]               --
├─Sequential: 1-1                        [10, 80]                  --
│    └─Flatten: 2-1                      [10, 80]                  --
│    └─Linear: 2-2                       [10, 4000]                324,000
│    └─ReLU: 2-3                         [10, 4000]                --
│    └─Linear: 2-4                       [10, 80]                  320,080
==========================================================================================
Total params: 644,080
Trainable params: 644,080
Non-trainable params: 0
Total mult-adds (Units.MEGABYTES): 6.44
==========================================================================================
Input size (MB): 0.00
Forward/backward pass size (MB): 0.33
Params size (MB): 2.58
Estimated Total Size (MB): 2.91
…
