…
Test Error: 
 Accuracy: 1.6%, Avg loss: 2.920560 
Epoch 10
-------------------------------
loss: 3.089813  [    7/   63]
loss: 4.090181  [   42/   63]

Test Error: 
 Accuracy: 2.7%, Avg loss: 4.275693 
Done!
Model weights saved to model_weights/Extreme2.pth
Training Model
===============================
==========================================================================================
Layer (type:depth-idx)                   Output Shape              Param #
==========================================================================================
Extreme                                  [400, 40, 2]              --
├─Sequential: 1-1                        [400, 80]                 --
│    └─Conv2d: 2-1                       [400, 80, 41, 3]          400
│    └─ReLU: 2-2                         [400, 80, 41, 3]          --
│    └─Conv2d: 2-3                       [400, 400, 40, 2]         128,400
│    └─Flatten: 2-4                      [400, 32000]              --
│    └─ReLU: 2-5                         [400, 32000]              --
│    └─Linear: 2-6                       [400, 80]                 2,560,080
==========================================================================================
Total params: 2,688,880
Trainable params: 2,688,880
Non-trainable params: 0
Total mult-adds (Units.GIGABYTES): 5.15
==========================================================================================
Input size (MB): 0.13
Forward/backward pass size (MB): 134.14
Params size (MB): 10.76
Estimated Total Size (MB): 145.03
…
loss: 12.704597  [13212/14483]
loss: 2.852811  [13428/14483]
loss: 3.989961  [13644/14483]
loss: 5.170337  [13860/14483]
loss: 4.286115  [14076/14483]
loss: 8.299361  [14292/14483]

Test Error: 
 Accuracy: 1.2%, Avg loss: 7.095843 
Epoch 12
-------------------------------
Training Model
===============================
==========================================================================================
Layer (type:depth-idx)                   Output Shape              Param #
==========================================================================================
Extreme                                  [7, 40, 2]                --
├─Sequential: 1-1                        [7, 80]                   --
│    └─Conv2d: 2-1                       [7, 80, 41, 3]            400
│    └─ReLU: 2-2                         [7, 80, 41, 3]            --
│    └─Conv2d: 2-3                       [7, 400, 40, 2]           128,400
│    └─Flatten: 2-4                      [7, 32000]                --
│    └─ReLU: 2-5                         [7, 32000]                --
│    └─Linear: 2-6                       [7, 80]                   2,560,080
==========================================================================================
Total params: 2,688,880
Trainable params: 2,688,880
Non-trainable params: 0
Total mult-adds (Units.MEGABYTES): 90.17
==========================================================================================
Input size (MB): 0.00
Forward/backward pass size (MB): 2.35
Params size (MB): 10.76
Estimated Total Size (MB): 13.11
…
Test Error: 
 Accuracy: 1.2%, Avg loss: 3.701439 
Epoch 50
-------------------------------
loss: 3.743434  [    9/   63]
loss: 10.133255  [   63/   63]

Test Error: 
 Accuracy: 1.2%, Avg loss: 3.701441 
Done!
Model weights saved to model_weights/Extreme2.pth
Training Model
===============================
==========================================================================================
Layer (type:depth-idx)                   Output Shape              Param #
==========================================================================================
Extreme                                  [7, 40, 2]                --
├─Sequential: 1-1                        [7, 80]                   --
│    └─Conv2d: 2-1                       [7, 80, 41, 3]            400
│    └─ReLU: 2-2                         [7, 80, 41, 3]            --
│    └─Conv2d: 2-3                       [7, 400, 40, 2]           128,400
│    └─Flatten: 2-4                      [7, 32000]                --
│    └─ReLU: 2-5                         [7, 32000]                --
│    └─Linear: 2-6                       [7, 1000]                 32,001,000
│    └─ReLU: 2-7                         [7, 1000]                 --
│    └─Linear: 2-8                       [7, 80]                   80,080
==========================================================================================
Total params: 32,209,880
Trainable params: 32,209,880
Non-trainable params: 0
Total mult-adds (Units.MEGABYTES): 296.82
==========================================================================================
Input size (MB): 0.00
Forward/backward pass size (MB): 2.40
Params size (MB): 128.84
Estimated Total Size (MB): 131.25
…
Test Error: 
 Accuracy: 0.0%, Avg loss: 5.317134 
Epoch 50
-------------------------------
loss: 9.249540  [    9/   63]
loss: 2.680727  [   63/   63]

Test Error: 
 Accuracy: 0.0%, Avg loss: 5.325200 
Done!
Model weights saved to model_weights/Extreme2.pth
Training Model
===============================
==========================================================================================
Layer (type:depth-idx)                   Output Shape              Param #
==========================================================================================
Extreme                                  [7, 40, 2]                --
├─Sequential: 1-1                        [7, 80]                   --
│    └─Conv2d: 2-1                       [7, 80, 41, 3]            400
│    └─ReLU: 2-2                         [7, 80, 41, 3]            --
│    └─Conv2d: 2-3                       [7, 400, 40, 2]           128,400
│    └─Flatten: 2-4                      [7, 32000]                --
│    └─ReLU: 2-5                         [7, 32000]                --
│    └─ReLU: 2-6                         [7, 32000]                --
│    └─Linear: 2-7                       [7, 6000]                 192,006,000
│    └─ReLU: 2-8                         [7, 6000]                 --
│    └─Linear: 2-9                       [7, 1000]                 6,001,000
│    └─ReLU: 2-10                        [7, 1000]                 --
│    └─Linear: 2-11                      [7, 80]                   80,080
==========================================================================================
Total params: 198,215,880
Trainable params: 198,215,880
Non-trainable params: 0
Total mult-adds (Units.GIGABYTES): 1.46
==========================================================================================
Input size (MB): 0.00
Forward/backward pass size (MB): 2.74
Params size (MB): 792.86
Estimated Total Size (MB): 795.61
…
loss: 6.357807  [   63/   63]

Test Error: 
 Accuracy: 0.0%, Avg loss: 10.468839 
Epoch 19
-------------------------------
loss: 4.120076  [    9/   63]
loss: 6.108945  [   63/   63]

Test Error: 
 Accuracy: 0.0%, Avg loss: 10.775926 
Epoch 20
-------------------------------
Training Model
===============================
==========================================================================================
Layer (type:depth-idx)                   Output Shape              Param #
==========================================================================================
Extreme                                  [7, 40, 2]                --
├─Sequential: 1-1                        [7, 80]                   --
│    └─Conv2d: 2-1                       [7, 80, 41, 3]            400
│    └─ReLU: 2-2                         [7, 80, 41, 3]            --
│    └─Conv2d: 2-3                       [7, 400, 40, 2]           128,400
│    └─Flatten: 2-4                      [7, 32000]                --
│    └─ReLU: 2-5                         [7, 32000]                --
│    └─ReLU: 2-6                         [7, 32000]                --
│    └─Linear: 2-7                       [7, 2000]                 64,002,000
│    └─ReLU: 2-8                         [7, 2000]                 --
│    └─Linear: 2-9                       [7, 1000]                 2,001,000
│    └─ReLU: 2-10                        [7, 1000]                 --
│    └─Linear: 2-11                      [7, 80]                   80,080
==========================================================================================
Total params: 66,211,880
Trainable params: 66,211,880
Non-trainable params: 0
Total mult-adds (Units.MEGABYTES): 534.83
==========================================================================================
Input size (MB): 0.00
Forward/backward pass size (MB): 2.52
Params size (MB): 264.85
Estimated Total Size (MB): 267.37
…
loss: 13.030126  [   63/   63]

Test Error: 
 Accuracy: 1.1%, Avg loss: 7.465216 
Epoch 33
-------------------------------
loss: 2.703151  [    9/   63]
loss: 13.042714  [   63/   63]

Test Error: 
 Accuracy: 1.1%, Avg loss: 7.512278 
Epoch 34
-------------------------------
Training Model
===============================
==========================================================================================
Layer (type:depth-idx)                   Output Shape              Param #
==========================================================================================
Extreme                                  [7, 40, 2]                --
├─Sequential: 1-1                        [7, 80]                   --
│    └─Conv2d: 2-1                       [7, 80, 41, 3]            400
│    └─ReLU: 2-2                         [7, 80, 41, 3]            --
│    └─Conv2d: 2-3                       [7, 400, 40, 2]           128,400
│    └─Flatten: 2-4                      [7, 32000]                --
│    └─ReLU: 2-5                         [7, 32000]                --
│    └─Linear: 2-6                       [7, 1000]                 32,001,000
│    └─ReLU: 2-7                         [7, 1000]                 --
│    └─Linear: 2-8                       [7, 500]                  500,500
│    └─ReLU: 2-9                         [7, 500]                  --
│    └─Linear: 2-10                      [7, 80]                   40,080
==========================================================================================
Total params: 32,670,380
Trainable params: 32,670,380
Non-trainable params: 0
Total mult-adds (Units.MEGABYTES): 300.04
==========================================================================================
Input size (MB): 0.00
Forward/backward pass size (MB): 2.43
Params size (MB): 130.68
Estimated Total Size (MB): 133.12
…
loss: 6.136788  [   63/   63]

Test Error: 
 Accuracy: 0.2%, Avg loss: 6.597843 
Epoch 22
-------------------------------
loss: 8.351560  [    9/   63]
loss: 6.132257  [   63/   63]

Test Error: 
 Accuracy: 0.4%, Avg loss: 6.594925 
Epoch 23
-------------------------------
Training Model
===============================
==========================================================================================
Layer (type:depth-idx)                   Output Shape              Param #
==========================================================================================
Extreme                                  [7, 40, 2, 40, 80]        --
├─Sequential: 1-1                        [7, 80, 40, 80]           --
│    └─Conv2d: 2-1                       [7, 80, 41, 3]            400
│    └─ReLU: 2-2                         [7, 80, 41, 3]            --
│    └─Conv2d: 2-3                       [7, 400, 40, 2]           128,400
│    └─ReLU: 2-4                         [7, 400, 40, 2]           --
│    └─Conv2d: 2-5                       [7, 400, 41, 3]           640,400
│    └─ReLU: 2-6                         [7, 400, 41, 3]           --
│    └─Conv2d: 2-7                       [7, 80, 40, 2]            128,080
│    └─ReLU: 2-8                         [7, 80, 40, 2]            --
│    └─Linear: 2-9                       [7, 80, 40, 500]          1,500
│    └─ReLU: 2-10                        [7, 80, 40, 500]          --
│    └─Linear: 2-11                      [7, 80, 40, 80]           40,080
==========================================================================================
Total params: 938,860
Trainable params: 938,860
Non-trainable params: 0
Total mult-adds (Units.MEGABYTES): 695.65
==========================================================================================
Input size (MB): 0.00
Forward/backward pass size (MB): 109.39
Params size (MB): 3.76
Estimated Total Size (MB): 113.15
==========================================================================================
Epoch 1
-------------------------------
Training Model
===============================
Training Model
===============================
==========================================================================================
Layer (type:depth-idx)                   Output Shape              Param #
==========================================================================================
Extreme                                  [7, 39, 80]               --
├─Sequential: 1-1                        [7, 1, 39, 80]            --
│    └─Conv2d: 2-1                       [7, 80, 41, 3]            400
│    └─ReLU: 2-2                         [7, 80, 41, 3]            --
│    └─Conv2d: 2-3                       [7, 400, 40, 2]           128,400
│    └─ReLU: 2-4                         [7, 400, 40, 2]           --
│    └─Conv2d: 2-5                       [7, 400, 41, 3]           640,400
│    └─ReLU: 2-6                         [7, 400, 41, 3]           --
│    └─Conv2d: 2-7                       [7, 80, 40, 2]            128,080
│    └─ReLU: 2-8                         [7, 80, 40, 2]            --
│    └─Conv2d: 2-9                       [7, 1, 39, 1]             321
│    └─ReLU: 2-10                        [7, 1, 39, 1]             --
│    └─Linear: 2-11                      [7, 1, 39, 500]           1,000
│    └─ReLU: 2-12                        [7, 1, 39, 500]           --
│    └─Linear: 2-13                      [7, 1, 39, 80]            40,080
==========================================================================================
Total params: 938,681
Trainable params: 938,681
Non-trainable params: 0
Total mult-adds (Units.MEGABYTES): 695.73
==========================================================================================
Input size (MB): 0.00
Forward/backward pass size (MB): 6.73
Params size (MB): 3.75
Estimated Total Size (MB): 10.48
==========================================================================================
Epoch 1
-------------------------------
Training Model
===============================
==========================================================================================
Layer (type:depth-idx)                   Output Shape              Param #
==========================================================================================
Extreme                                  [7, 40, 80]               --
├─Sequential: 1-1                        [7, 1, 40, 80]            --
│    └─Conv2d: 2-1                       [7, 80, 41, 3]            400
│    └─ReLU: 2-2                         [7, 80, 41, 3]            --
│    └─Conv2d: 2-3                       [7, 400, 40, 2]           128,400
│    └─ReLU: 2-4                         [7, 400, 40, 2]           --
│    └─Conv2d: 2-5                       [7, 80, 41, 3]            128,080
│    └─ReLU: 2-6                         [7, 80, 41, 3]            --
│    └─Conv2d: 2-7                       [7, 1, 40, 2]             321
│    └─ReLU: 2-8                         [7, 1, 40, 2]             --
│    └─Linear: 2-9                       [7, 1, 40, 500]           1,500
│    └─ReLU: 2-10                        [7, 1, 40, 500]           --
│    └─Linear: 2-11                      [7, 1, 40, 80]            40,080
==========================================================================================
Total params: 298,781
Trainable params: 298,781
Non-trainable params: 0
Total mult-adds (Units.MEGABYTES): 183.00
==========================================================================================
Input size (MB): 0.00
Forward/backward pass size (MB): 4.20
Params size (MB): 1.20
Estimated Total Size (MB): 5.40
==========================================================================================
Epoch 1
-------------------------------
Training Model
===============================
==========================================================================================
Layer (type:depth-idx)                   Output Shape              Param #
==========================================================================================
Extreme                                  [7, 80]                   --
├─Sequential: 1-1                        [7, 80]                   --
│    └─Conv2d: 2-1                       [7, 80, 41, 3]            400
│    └─ReLU: 2-2                         [7, 80, 41, 3]            --
│    └─Conv2d: 2-3                       [7, 400, 40, 2]           128,400
│    └─ReLU: 2-4                         [7, 400, 40, 2]           --
│    └─Conv2d: 2-5                       [7, 80, 41, 3]            128,080
│    └─ReLU: 2-6                         [7, 80, 41, 3]            --
│    └─Conv2d: 2-7                       [7, 1, 40, 2]             321
│    └─Flatten: 2-8                      [7, 80]                   --
│    └─ReLU: 2-9                         [7, 80]                   --
│    └─Linear: 2-10                      [7, 500]                  40,500
│    └─ReLU: 2-11                        [7, 500]                  --
│    └─Linear: 2-12                      [7, 80]                   40,080
==========================================================================================
Total params: 337,781
Trainable params: 337,781
Non-trainable params: 0
Total mult-adds (Units.MEGABYTES): 183.27
==========================================================================================
Input size (MB): 0.00
Forward/backward pass size (MB): 2.93
Params size (MB): 1.35
Estimated Total Size (MB): 4.28
…
