Training Model
===============================
==========================================================================================
Layer (type:depth-idx)                   Output Shape              Param #
==========================================================================================
Extreme                                  [10, 40, 2]               --
├─Sequential: 1-1                        [10, 80]                  --
│    └─Flatten: 2-1                      [10, 80]                  --
│    └─Linear: 2-2                       [10, 4000]                324,000
│    └─ReLU: 2-3                         [10, 4000]                --
│    └─Linear: 2-4                       [10, 80]                  320,080
==========================================================================================
Total params: 644,080
Trainable params: 644,080
Non-trainable params: 0
Total mult-adds (Units.MEGABYTES): 6.44
==========================================================================================
Input size (MB): 0.00
Forward/backward pass size (MB): 0.33
Params size (MB): 2.58
Estimated Total Size (MB): 2.91
==========================================================================================
Epoch 1
-------------------------------
Training Model
===============================
==========================================================================================
Layer (type:depth-idx)                   Output Shape              Param #
==========================================================================================
Extreme                                  [10, 40, 2]               --
├─Sequential: 1-1                        [10, 80]                  --
│    └─Flatten: 2-1                      [10, 80]                  --
│    └─Linear: 2-2                       [10, 4000]                324,000
│    └─ReLU: 2-3                         [10, 4000]                --
│    └─Linear: 2-4                       [10, 80]                  320,080
==========================================================================================
Total params: 644,080
Trainable params: 644,080
Non-trainable params: 0
Total mult-adds (Units.MEGABYTES): 6.44
==========================================================================================
Input size (MB): 0.00
Forward/backward pass size (MB): 0.33
Params size (MB): 2.58
Estimated Total Size (MB): 2.91
…
 Accuracy: 1.4%, Avg loss: 173.187134 
Epoch 100
-------------------------------
loss: 1267.396484  [    7/   63]
loss: 278.072327  [   42/   63]

Test Error: 
 Accuracy: 8.0%, Avg loss: 424.843155 
Done!
Model weights saved to model_weights/Extreme3.pth
Training Model
===============================
==========================================================================================
Layer (type:depth-idx)                   Output Shape              Param #
==========================================================================================
Extreme                                  [10, 40, 2]               --
├─Sequential: 1-1                        [10, 80]                  --
│    └─Flatten: 2-1                      [10, 80]                  --
│    └─Linear: 2-2                       [10, 4000]                324,000
│    └─ReLU: 2-3                         [10, 4000]                --
│    └─Linear: 2-4                       [10, 80]                  320,080
==========================================================================================
Total params: 644,080
Trainable params: 644,080
Non-trainable params: 0
Total mult-adds (Units.MEGABYTES): 6.44
==========================================================================================
Input size (MB): 0.00
Forward/backward pass size (MB): 0.33
Params size (MB): 2.58
Estimated Total Size (MB): 2.91
…
