Training Model
===============================
==========================================================================================
Layer (type:depth-idx)                   Output Shape              Param #
==========================================================================================
Extreme                                  [10, 40, 2]               --
├─Sequential: 1-1                        [10, 80]                  --
│    └─Flatten: 2-1                      [10, 80]                  --
│    └─Linear: 2-2                       [10, 160]                 12,960
│    └─ReLU: 2-3                         [10, 160]                 --
│    └─Linear: 2-4                       [10, 80]                  12,880
==========================================================================================
Total params: 25,840
Trainable params: 25,840
Non-trainable params: 0
Total mult-adds (Units.MEGABYTES): 0.26
==========================================================================================
Input size (MB): 0.00
Forward/backward pass size (MB): 0.02
Params size (MB): 0.10
Estimated Total Size (MB): 0.13
…
Test Error: 
 Accuracy: 0.0%, Avg loss: 0.815548 
Epoch 100
-------------------------------
loss: 8.909574  [    7/   63]
loss: 1.949779  [   42/   63]

Test Error: 
 Accuracy: 0.4%, Avg loss: 1.525351 
Done!
Model weights saved to model_weights/Extreme2.pth
Training Model
===============================
==========================================================================================
Layer (type:depth-idx)                   Output Shape              Param #
==========================================================================================
Extreme                                  [10, 40, 2]               --
├─Sequential: 1-1                        [10, 80]                  --
│    └─Flatten: 2-1                      [10, 80]                  --
│    └─Linear: 2-2                       [10, 320]                 25,920
│    └─ReLU: 2-3                         [10, 320]                 --
│    └─Linear: 2-4                       [10, 80]                  25,680
==========================================================================================
Total params: 51,600
Trainable params: 51,600
Non-trainable params: 0
Total mult-adds (Units.MEGABYTES): 0.52
==========================================================================================
Input size (MB): 0.00
Forward/backward pass size (MB): 0.03
Params size (MB): 0.21
Estimated Total Size (MB): 0.24
…
Test Error: 
 Accuracy: 0.0%, Avg loss: 3.689200 
Epoch 200
-------------------------------
loss: 2.711907  [    7/   63]
loss: 1.369185  [   42/   63]

Test Error: 
 Accuracy: 11.6%, Avg loss: 1.190718 
Done!
Model weights saved to model_weights/Extreme2.pth
Training Model
===============================
==========================================================================================
Layer (type:depth-idx)                   Output Shape              Param #
==========================================================================================
Extreme                                  [10, 40, 2]               --
├─Sequential: 1-1                        [10, 80]                  --
│    └─Flatten: 2-1                      [10, 80]                  --
│    └─Linear: 2-2                       [10, 4000]                324,000
│    └─ReLU: 2-3                         [10, 4000]                --
│    └─Linear: 2-4                       [10, 80]                  320,080
==========================================================================================
Total params: 644,080
Trainable params: 644,080
Non-trainable params: 0
Total mult-adds (Units.MEGABYTES): 6.44
==========================================================================================
Input size (MB): 0.00
Forward/backward pass size (MB): 0.33
Params size (MB): 2.58
Estimated Total Size (MB): 2.91
…
Test Error: 
 Accuracy: 12.1%, Avg loss: 0.660317 
Epoch 600
-------------------------------
loss: 0.174929  [    7/   63]
loss: 0.097133  [   42/   63]

Test Error: 
 Accuracy: 12.1%, Avg loss: 0.645124 
Done!
Model weights saved to model_weights/Extreme2.pth
Training Model
===============================
==========================================================================================
Layer (type:depth-idx)                   Output Shape              Param #
==========================================================================================
Extreme                                  [200, 40, 2]              --
├─Sequential: 1-1                        [200, 80]                 --
│    └─Flatten: 2-1                      [200, 80]                 --
│    └─Linear: 2-2                       [200, 4000]               324,000
│    └─ReLU: 2-3                         [200, 4000]               --
│    └─Linear: 2-4                       [200, 80]                 320,080
==========================================================================================
Total params: 644,080
Trainable params: 644,080
Non-trainable params: 0
Total mult-adds (Units.MEGABYTES): 128.82
==========================================================================================
Input size (MB): 0.06
Forward/backward pass size (MB): 6.53
Params size (MB): 2.58
Estimated Total Size (MB): 9.17
…
