Training Model
===============================
==========================================================================================
Layer (type:depth-idx)                   Output Shape              Param #
==========================================================================================
Extreme                                  [40, 40, 2]               --
├─Sequential: 1-1                        [40, 80]                  --
│    └─Flatten: 2-1                      [40, 80]                  --
│    └─Linear: 2-2                       [40, 4000]                324,000
│    └─ReLU: 2-3                         [40, 4000]                --
│    └─Linear: 2-4                       [40, 80]                  320,080
==========================================================================================
Total params: 644,080
Trainable params: 644,080
Non-trainable params: 0
Total mult-adds (Units.MEGABYTES): 25.76
==========================================================================================
Input size (MB): 0.01
Forward/backward pass size (MB): 1.31
Params size (MB): 2.58
Estimated Total Size (MB): 3.89
…
loss: 0.136467  [ 1300/ 4000]
loss: 0.115143  [ 1900/ 4000]
loss: 0.172436  [ 2500/ 4000]
loss: 0.124189  [ 3100/ 4000]
loss: 0.106679  [ 3700/ 4000]

Test Error: 
 Accuracy: 18.0%, Avg loss: 0.092659 
Done!
Model weights saved to model_weights/ExtremeFinal.pth
Training Model
===============================
==========================================================================================
Layer (type:depth-idx)                   Output Shape              Param #
==========================================================================================
Extreme                                  [100, 40, 2]              --
├─Sequential: 1-1                        [100, 80]                 --
│    └─Flatten: 2-1                      [100, 80]                 --
│    └─Linear: 2-2                       [100, 4000]               324,000
│    └─ReLU: 2-3                         [100, 4000]               --
│    └─Linear: 2-4                       [100, 80]                 320,080
==========================================================================================
Total params: 644,080
Trainable params: 644,080
Non-trainable params: 0
Total mult-adds (Units.MEGABYTES): 64.41
==========================================================================================
Input size (MB): 0.03
Forward/backward pass size (MB): 3.26
Params size (MB): 2.58
Estimated Total Size (MB): 5.87
…
