Training Model
===============================
==========================================================================================
Layer (type:depth-idx)                   Output Shape              Param #
==========================================================================================
Extreme                                  [40, 40, 2]               --
├─Sequential: 1-1                        [40, 80]                  --
│    └─Flatten: 2-1                      [40, 80]                  --
│    └─Linear: 2-2                       [40, 4000]                324,000
│    └─ReLU: 2-3                         [40, 4000]                --
│    └─Linear: 2-4                       [40, 80]                  320,080
==========================================================================================
Total params: 644,080
Trainable params: 644,080
Non-trainable params: 0
Total mult-adds (Units.MEGABYTES): 25.76
==========================================================================================
Input size (MB): 0.01
Forward/backward pass size (MB): 1.31
Params size (MB): 2.58
Estimated Total Size (MB): 3.89
…
