Training Model
===============================
==========================================================================================
Layer (type:depth-idx)                   Output Shape              Param #
==========================================================================================
Gandalf                                  [7, 40, 2]                --
├─Sequential: 1-1                        [7, 80]                   --
│    └─Linear: 2-1                       [7, 300]                  24,300
│    └─ReLU: 2-2                         [7, 300]                  --
│    └─Linear: 2-3                       [7, 500]                  150,500
│    └─ReLU: 2-4                         [7, 500]                  --
│    └─Linear: 2-5                       [7, 300]                  150,300
│    └─ReLU: 2-6                         [7, 300]                  --
│    └─Linear: 2-7                       [7, 80]                   24,080
==========================================================================================
Total params: 349,180
Trainable params: 349,180
Non-trainable params: 0
Total mult-adds (Units.MEGABYTES): 2.44
==========================================================================================
Input size (MB): 0.00
Forward/backward pass size (MB): 0.07
Params size (MB): 1.40
Estimated Total Size (MB): 1.47
…
