Training Model
===============================
==========================================================================================
Layer (type:depth-idx)                   Output Shape              Param #
==========================================================================================
Gandalf                                  [100, 40, 2]              --
├─Sequential: 1-1                        [100, 80]                 --
│    └─Linear: 2-1                       [100, 300]                24,300
│    └─ReLU: 2-2                         [100, 300]                --
│    └─Linear: 2-3                       [100, 500]                150,500
│    └─ReLU: 2-4                         [100, 500]                --
│    └─Linear: 2-5                       [100, 300]                150,300
│    └─ReLU: 2-6                         [100, 300]                --
│    └─Linear: 2-7                       [100, 80]                 24,080
==========================================================================================
Total params: 349,180
Trainable params: 349,180
Non-trainable params: 0
Total mult-adds (Units.MEGABYTES): 34.92
==========================================================================================
Input size (MB): 0.03
Forward/backward pass size (MB): 0.94
Params size (MB): 1.40
Estimated Total Size (MB): 2.37
…
