Training Model
===============================
==========================================================================================
Layer (type:depth-idx)                   Output Shape              Param #
==========================================================================================
Gandalf                                  [800, 40, 2]              --
├─Sequential: 1-1                        [800, 80]                 --
│    └─Linear: 2-1                       [800, 300]                24,300
│    └─ReLU: 2-2                         [800, 300]                --
│    └─Linear: 2-3                       [800, 500]                150,500
│    └─ReLU: 2-4                         [800, 500]                --
│    └─Linear: 2-5                       [800, 300]                150,300
│    └─ReLU: 2-6                         [800, 300]                --
│    └─Linear: 2-7                       [800, 80]                 24,080
==========================================================================================
Total params: 349,180
Trainable params: 349,180
Non-trainable params: 0
Total mult-adds (Units.MEGABYTES): 279.34
==========================================================================================
Input size (MB): 0.26
Forward/backward pass size (MB): 7.55
Params size (MB): 1.40
Estimated Total Size (MB): 9.20
…
