Training Model
===============================
==========================================================================================
Layer (type:depth-idx)                   Output Shape              Param #
==========================================================================================
GrayscaleTransform                       [5]                       --
├─Sequential: 1-1                        [5, 1]                    --
│    └─LayerNorm: 2-1                    [5, 1, 1, 656, 875]       1,148,000
│    └─Conv3d: 2-2                       [5, 4, 1, 654, 873]       40
│    └─ReLU: 2-3                         [5, 4, 1, 654, 873]       --
│    └─Conv3d: 2-4                       [5, 1, 1, 646, 865]       325
│    └─MaxPool3d: 2-5                    [5, 1, 1, 211, 284]       --
│    └─ReLU: 2-6                         [5, 1, 1, 211, 284]       --
│    └─Flatten: 2-7                      [5, 59924]                --
│    └─Linear: 2-8                       [5, 5000]                 299,625,000
│    └─ReLU: 2-9                         [5, 5000]                 --
│    └─Linear: 2-10                      [5, 500]                  2,500,500
│    └─ReLU: 2-11                        [5, 500]                  --
│    └─Linear: 2-12                      [5, 300]                  150,300
│    └─Linear: 2-13                      [5, 1]                    301
==========================================================================================
Total params: 303,424,466
Trainable params: 303,424,466
Non-trainable params: 0
Total mult-adds (Units.GIGABYTES): 2.54
==========================================================================================
Input size (MB): 34.44
Forward/backward pass size (MB): 136.89
Params size (MB): 1213.70
Estimated Total Size (MB): 1385.03
…
