Training Model
===============================
==========================================================================================
Layer (type:depth-idx)                   Output Shape              Param #
==========================================================================================
GrayscaleTransform                       [22]                      --
├─Sequential: 1-1                        [22, 1]                   --
│    └─LayerNorm: 2-1                    [22, 1, 1, 656, 875]      1,148,000
│    └─Conv3d: 2-2                       [22, 4, 1, 654, 873]      40
│    └─ReLU: 2-3                         [22, 4, 1, 654, 873]      --
│    └─Conv3d: 2-4                       [22, 1, 1, 646, 865]      325
│    └─MaxPool3d: 2-5                    [22, 1, 1, 211, 284]      --
│    └─ReLU: 2-6                         [22, 1, 1, 211, 284]      --
│    └─Flatten: 2-7                      [22, 59924]               --
│    └─Linear: 2-8                       [22, 5000]                299,625,000
│    └─ReLU: 2-9                         [22, 5000]                --
│    └─Linear: 2-10                      [22, 500]                 2,500,500
│    └─ReLU: 2-11                        [22, 500]                 --
│    └─Linear: 2-12                      [22, 300]                 150,300
│    └─Linear: 2-13                      [22, 1]                   301
==========================================================================================
Total params: 303,424,466
Trainable params: 303,424,466
Non-trainable params: 0
Total mult-adds (Units.GIGABYTES): 11.17
==========================================================================================
Input size (MB): 151.54
Forward/backward pass size (MB): 602.34
Params size (MB): 1213.70
Estimated Total Size (MB): 1967.57
…
