==========================================================================================
Layer (type:depth-idx)                   Output Shape              Param #
==========================================================================================
Xanathor                                 [100]                     --
├─Sequential: 1-1                        [100, 1]                  --
│    └─Flatten: 2-1                      [100, 80]                 --
│    └─Linear: 2-2                       [100, 300]                24,300
│    └─ReLU: 2-3                         [100, 300]                --
│    └─Linear: 2-4                       [100, 500]                150,500
│    └─ReLU: 2-5                         [100, 500]                --
│    └─Linear: 2-6                       [100, 300]                150,300
│    └─ReLU: 2-7                         [100, 300]                --
│    └─Linear: 2-8                       [100, 1]                  301
==========================================================================================
Total params: 325,401
Trainable params: 325,401
Non-trainable params: 0
Total mult-adds (Units.MEGABYTES): 32.54
==========================================================================================
Input size (MB): 0.03
Forward/backward pass size (MB): 0.88
Params size (MB): 1.30
Estimated Total Size (MB): 2.21
…
